Successful nets:
Search strategy: RL_Search
Performance Predictor: Low_Fidelity
0
Sequential(
  (preprocess): Lambda()
  (Cons0): Conv2d(3, 36, kernel_size=(5, 5), stride=(1, 1))
  (ReLu0): ReLU()
  (Cons1): Conv2d(36, 36, kernel_size=(1, 1), stride=(1, 1))
  (ReLu1): ReLU()
  (Cons2): Conv2d(36, 16, kernel_size=(1, 1), stride=(3, 3))
  (ReLu2): ReLU()
  (postprocess): Lambda()
  (FC): Linear(in_features=1600, out_features=10, bias=True)
)
tensor(0.3798)
1
Sequential(
  (preprocess): Lambda()
  (Cons0): Conv2d(3, 16, kernel_size=(1, 1), stride=(1, 1))
  (ReLu0): ReLU()
  (Cons1): Conv2d(16, 16, kernel_size=(5, 5), stride=(3, 3))
  (ReLu1): ReLU()
  (Cons2): Conv2d(16, 16, kernel_size=(1, 1), stride=(3, 3))
  (ReLu2): ReLU()
  (postprocess): Lambda()
  (FC): Linear(in_features=256, out_features=10, bias=True)
)
tensor(0.3774)
2
Sequential(
  (preprocess): Lambda()
  (Cons0): Conv2d(3, 36, kernel_size=(5, 5), stride=(1, 1), padding=(1, 1))
  (ReLu0): ReLU()
  (Cons1): Conv2d(36, 24, kernel_size=(5, 5), stride=(1, 1))
  (ReLu1): ReLU()
  (Cons2): Conv2d(24, 16, kernel_size=(5, 5), stride=(3, 3))
  (ReLu2): ReLU()
  (postprocess): Lambda()
  (FC): Linear(in_features=1024, out_features=10, bias=True)
)
tensor(0.1000)
3
Sequential(
  (preprocess): Lambda()
  (Cons0): Conv2d(3, 16, kernel_size=(1, 1), stride=(1, 1))
  (ReLu0): ReLU()
  (Cons1): Conv2d(16, 16, kernel_size=(5, 5), stride=(1, 1))
  (ReLu1): ReLU()
  (Cons2): Conv2d(16, 16, kernel_size=(1, 1), stride=(1, 1))
  (ReLu2): ReLU()
  (postprocess): Lambda()
  (FC): Linear(in_features=12544, out_features=10, bias=True)
)
tensor(0.1000)
4
Sequential(
  (preprocess): Lambda()
  (Cons0): Conv2d(3, 36, kernel_size=(1, 1), stride=(1, 1))
  (ReLu0): ReLU()
  (Cons1): Conv2d(36, 16, kernel_size=(5, 5), stride=(1, 1))
  (ReLu1): ReLU()
  (Cons2): Conv2d(16, 24, kernel_size=(5, 5), stride=(1, 1))
  (ReLu2): ReLU()
  (postprocess): Lambda()
  (FC): Linear(in_features=13824, out_features=10, bias=True)
)
tensor(0.1000)
5
Sequential(
  (preprocess): Lambda()
  (Cons0): Conv2d(3, 16, kernel_size=(5, 5), stride=(1, 1), padding=(1, 1))
  (ReLu0): ReLU()
  (Avg_Pool1): AvgPool2d(kernel_size=1, stride=1, padding=0)
  (Cons2): Conv2d(16, 36, kernel_size=(5, 5), stride=(1, 1))
  (ReLu2): ReLU()
  (postprocess): Lambda()
  (FC): Linear(in_features=24336, out_features=10, bias=True)
)
tensor(0.1000)
6
Sequential(
  (preprocess): Lambda()
  (Cons0): Conv2d(3, 24, kernel_size=(5, 5), stride=(3, 3))
  (ReLu0): ReLU()
  (Avg_Pool1): AvgPool2d(kernel_size=1, stride=1, padding=0)
  (Cons2): Conv2d(24, 36, kernel_size=(3, 3), stride=(1, 1), padding=(1, 1))
  (ReLu2): ReLU()
  (postprocess): Lambda()
  (FC): Linear(in_features=3600, out_features=10, bias=True)
)
tensor(0.4138)
7
Sequential(
  (preprocess): Lambda()
  (Cons0): Conv2d(3, 36, kernel_size=(5, 5), stride=(3, 3))
  (ReLu0): ReLU()
  (Cons1): Conv2d(36, 16, kernel_size=(5, 5), stride=(1, 1))
  (ReLu1): ReLU()
  (Cons2): Conv2d(16, 36, kernel_size=(5, 5), stride=(3, 3), padding=(1, 1))
  (ReLu2): ReLU()
  (postprocess): Lambda()
  (FC): Linear(in_features=144, out_features=10, bias=True)
)
tensor(0.3372)
